Keypoint_evaluations/point_cloud_segmentation.pt (torch, 174457 bytes, 8 tensors)

conv1.weight f4 [64, 3, 1]
0.06288718 -0.38595572 -0.28618675 -0.23184308 -0.11621863 -0.28442776 -0.43185368 -0.28650796
0.059353266 0.40929157 0.14098294 -0.21709542 -0.0031939857 0.16623598 -0.18251638 0.08056123
-0.40371698 0.53325444 0.39434364 -0.04360468 -0.41713485 -0.32561386 -0.10808001 -0.17421031
-0.57493585 0.17309032 0.4620923 0.38801464 -0.039175138 0.4953115 0.39047226 -0.48791596
0.21837337 -0.29937503 0.35908878 -0.24199182 -0.18297228 -0.44864318 0.14945611 -0.094705075
0.49343014 0.34215036 -0.50607556 0.2582418 0.11109849 -0.29632998 0.1703298 0.2697954
0.449908 0.56905425 0.331078 0.08833225 0.081331044 -0.3608665 -0.4655819 -0.18977706
0.27018997 -0.5024784 -0.48441765 0.19921793 0.1551811 -0.089535594 0.1618222 0.25823015
-0.45689908 -0.09974813 0.08179093 0.16070406 -0.326275 0.45015734 -0.17977066 -0.12438794
-0.019423937 -0.15536906 -0.35094756 0.0009066385 0.52184206 -0.4975737 0.33405793 0.4837356
-0.5673315 0.39572152 0.05998233 -0.31263816 -0.40999207 0.19772021 0.06929449 0.10263322
-0.4763619 -0.21936488 -0.39553693 0.3737041 0.5678188 0.49454808 -0.3135429 0.21470436
-0.13308804 -0.061437372 0.0750035 0.00094834674 0.21337272 -0.47563118 0.18571374 -0.23336433
0.23294504 0.22838652 0.57475376 0.15943982 0.4752788 0.060650695 -0.2871567 -0.10641732
-0.4974678 -0.43086293 -0.31469408 -0.012828456 -0.5221391 -0.33412123 0.13167931 0.24277043
0.09439068 0.13666345 0.12391552 0.11093448 0.4150295 -0.02015273 -0.41208857 -0.26523557
0.03898628 -0.29198956 -0.046038006 0.04520556 0.36505905 -0.40990013 0.39796728 -0.50050575
0.33049047 0.24395554 0.4886997 -0.092754014 0.30391997 0.32115093 0.4037684 0.07970291
0.5231706 0.34504005 0.516866 -0.5131407 -0.45835334 -0.2784372 -0.014593418 0.5529269
0.18807839 0.3122154 -0.011772122 0.34018767 0.3790267 -0.12282911 0.051390566 -0.04400373
0.1458911 -0.38966915 -0.46941334 0.3999615 -0.42395657 -0.56817055 0.025749346 -0.2538554
0.5771991 0.12161633 0.56248534 0.24347493 -0.33490026 -0.09236274 -0.5487964 0.34462434
0.33976576 -0.22943212 -0.21194872 -0.007817133 0.5455001 -0.4075069 -0.24439128 -0.10888609
-0.045327794 -0.20646298 0.45886403 -0.30001536 0.25766677 -0.2868725 -0.47015673 0.21320747
00000000: feca 803d fd9b c5be 1287 92be 4668 6dbe
00000010: 0804 eebd 84a0 91be ed1b ddbe 2cb1 92be
00000020: 691c 733d aa8e d13e d55d 103e 434e 5ebe
00000030: 3052 51bb c439 2a3e 93e5 3abe 49fd a43d
00000040: feb3 cebe 5d83 083f 69e7 c93e d29a 32bd
00000050: b392 d5be dcb6 a6be 0d59 ddbd 3064 32be
00000060: ff2e 13bf 973e 313e 5d97 ec3e dba9 c63e
00000070: 1c76 20bd 7899 fd3e fbeb c73e 1fd0 f9be
00000080: 459d 5f3e af47 99be 7cda b73e b4cc 77be
00000090: 165d 3bbe 8fb4 e5be 060b 193e bcf4 c1bd
000000a0: e0a2 fc3e 552e af3e 2b8e 01bf 4538 843e
000000b0: 9b87 e33d 90b8 97be ef6a 2e3e 9f22 8a3e
000000c0: 575a e63e 8aad 113f 0e83 a93e 8ae7 b43d
000000d0: e490 a63d 7ec3 b8be c060 eebe eb54 42be
000000e0: 5756 8a3e 6da2 00bf 9705 f8be c9ff 4b3e
000000f0: cbe7 1e3e 705e b7bd b8b4 253e be36 843e
00000100: adee e9be bf48 ccbd 0182 a73d 9b8f 243e
00000110: 840d a7be 067b e63e cd15 38be 1bbf febd
00000120: f31e 9fbc 1119 1fbe 66af b3be 7bab 6d3a
00000130: 7197 053f fbc1 febe a409 ab3e 31ac f73e
00000140: a33c 11bf 039c ca3e 08b0 753d 1c12 a0be
00000150: 7bea d1be 2b77 4a3e 45ea 8d3d 5e31 d23d
00000160: b5e5 f3be 30a1 60be d183 cabe 2556 bf3e
00000170: 935c 113f 6835 fd3e b288 a0be 76db 5b3e
00000180: 3b48 08be c1a5 7bbd 6f9b 993d 799a 783a
00000190: 617e 5a3e ee85 f3be be2b 3e3e 0ff7 6ebe
000001a0: 2589 6e3e 28de 693e 1023 133f 3144 233e
000001b0: be57 f33e dd6c 783d 3406 93be 53f1 d9bd
000001c0: 19b4 febe 119a dcbe 951f a1be 722e 52bc
000001d0: e8aa 05bf f011 abbe f1d6 063e d098 783e
000001e0: e74f c13d 81f1 0b3e 6cc7 fd3d 9e31 e33d
000001f0: bf7e d43e 5717 a5bc 46fd d2be f5cc 87be
00000200: 14b0 1f3d a87f 95be 5992 3cbd 7729 393d
00000210: 05e9 ba3e 6ede d1be 5ec2 cb3e 2521 00bf
00000220: 0c36 a93e 7bcf 793e d936 fa3e d1f5 bdbd
00000230: 669b 9b3e e56d a43e bbba ce3e 473b a33d
00000240: 82ee 053f 17a9 b03e 5551 043f 305d 03bf
00000250: 4aad eabe 528f 8ebe 3b19 6fbc 9e8c 0d3f
00000260: 9f97 403e b2da 9f3e dcdf 40bc 142d ae3e
00000270: ca0f c23e d48d fbbd ea7e 523d 413d 34bd
00000280: 7a64 153e b782 c7be f256 f0be c1c7 cc3e
00000290: d610 d9be a073 11bf 4bf0 d23c 56f9 81be
000002a0: 52c3 133f fc11 f93d 0aff 0f3f 7e51 793e
000002b0: 0c78 abbe ad28 bdbd ec7d 0cbf 9a72 b03e
000002c0: c7f5 ad3e 41f0 6abe 1609 59be 6f13 00bc
000002d0: e5a5 0b3f bfa4 d0be b541 7abe acff debd
000002e0: a3a9 39bd 086b 53be 3af0 ea3e 9d9b 99be
000002f0: e6ec 833e f4e0 92be 62b8 f0be 0f53 5a3e

conv1.bias f4 [64]
-0.056509394 -0.033212442 0.19039498 -0.5661789 -0.12579529 -0.49323192 -0.045923 0.5236932
0.20093526 0.497379 -0.29125774 0.44290844 0.49092296 -0.3403267 -0.026465269 -0.2848889
-0.15331276 -0.21819787 0.24115105 -0.084140636 0.06627023 -0.20608163 0.5517167 -0.27712402
0.274994 -0.124240585 0.39883634 0.4924316 0.36879408 -0.4628151 -0.47883135 0.5429898
-0.37395605 -0.22519384 0.32853702 -0.015111743 -0.54961634 -0.53835213 -0.5117775 0.45357892
-0.08349485 -0.19793406 -0.026392657 -0.32361522 -0.26259997 -0.42959192 0.14365964 -0.0037681968
0.16190892 -0.36199117 -0.36708426 -0.34030363 -0.045100532 -0.3189403 -0.42952743 -0.009151041
-0.5211625 0.4392732 -0.45546123 -0.0287617 -0.10174565 0.50260603 0.2861691 0.38488755
00000000: 6576 67bd c509 08bd e7f6 423e 1af1 10bf
00000010: 7bd0 00be e588 fcbe c119 3cbd c210 063f
00000020: f9c1 4d3e 76a8 fe3e bc1f 95be e5c4 e23e
00000030: 415a fb3e 4d3f aebe b1cd d8bc f5dc 91be
00000040: 05fe 1cbe 436f 5fbe 4df0 763e ed51 acbd
00000050: b0b8 873d 1007 53be 4e3d 0d3f 33e3 8dbe
00000060: 03cc 8c3e d971 febd 4734 cc3e ff1f fc3e
00000070: 94d2 bc3e 1af6 ecbe 6229 f5be 6101 0b3f
00000080: 2b77 bfbe 3799 66be 0136 a83e 3e97 77bc
00000090: a8b3 0cbf 72d1 09bf da03 03bf 7f3b e83e
000000a0: 59ff aabd 3aaf 4abe 6a35 d8bc e5b0 a5be
000000b0: 8173 86be 79f3 dbbe 831b 133e daf3 76bb
000000c0: 74cb 253e e856 b9be 78f2 bbbe 473c aebe
000000d0: 56bb 38bd 254c a3be 05eb dbbe 3fee 15bc
000000e0: e86a 05bf 6be8 e03e 3732 e9be a89d ebbc
000000f0: 0660 d0bd caaa 003f c284 923e fb0f c53e

conv2.weight f4 [128, 64, 1]
-0.03002946 -0.0905036 0.056523487 0.012044162 0.06750138 -0.0324457 0.06883465 -0.005451247
-0.016259536 0.048132285 0.10404934 -0.07395983 0.05423464 -0.080832765 -0.014535338 0.052406684
0.008930817 -0.10005213 0.07343687 0.04204403 0.09878762 0.106293485 0.11183378 0.011915013
-0.10418041 -0.10188834 -0.040661946 0.09351355 0.11049789 0.085859865 0.04931587 -0.112299815
0.03745787 -0.03704706 0.119005576 -0.09253676 0.101974204 0.044750825 0.10477151 -0.08006023
-0.10127421 0.07728155 -0.011551753 0.10960752 0.08918178 -0.04015185 -0.008338332 0.10154618
0.10364401 -0.045792654 0.08309993 0.06617732 -0.04505475 0.06946388 -0.038181514 0.06530808
0.10717036 -0.007959366 0.010324493 -0.0089930445 0.041585803 0.10987903 0.11346641 -0.1210985
-0.06259853 -0.008766174 -0.04963793 -0.04948607 0.0077286363 -0.013841853 -0.121113464 -0.09310885
-0.06316066 0.0749169 0.033707947 0.004752636 0.0036529005 0.018153667 -0.11078526 0.009414241
0.04800062 -0.095562875 -0.09932624 -0.075262174 -0.011732876 0.0451975 0.009887472 0.02024813
-0.09629439 -0.085434854 -0.09062064 0.121006876 -0.055958405 0.0519121 -0.0022417903 0.013968915
-0.058523342 0.011062741 -0.044350177 0.035559937 0.029491499 -0.07152231 -0.018603593 0.022807986
-0.0805776 -0.08127549 0.038697377 0.047697544 -0.095477626 0.10194245 0.074370325 -0.03443645
-0.08168161 0.08105846 -0.102733985 -0.08138664 0.11857994 0.03522244 -0.04015529 0.11159885
-0.12217517 -0.09855579 0.0626134 0.016276896 0.10640049 -0.031741306 0.10214132 -0.08161108
0.061778888 0.07547718 -0.02210486 0.03313364 0.08273767 -0.06897162 0.033451766 -0.11362031
0.0020840317 0.045079634 0.08604717 -0.03248696 0.029596373 0.08249368 0.10980438 0.01461567
0.011367753 0.11807121 -0.011071533 -0.055485815 -0.06476325 0.03314863 0.014332712 -0.039357945
0.08231947 0.04189472 -0.028733626 0.09707393 -0.0482347 0.019201353 -0.06290318 0.0154501945
-0.041614816 -0.0274636 -0.10268478 -0.08516924 0.057027414 0.11054984 -0.037436277 -0.05743599
-0.049730197 0.09868847 -0.07206912 0.11990316 0.03926836 0.0359205 -0.049402818 0.060656086
-0.092072606 -0.11008337 -0.06572138 -0.022604376 0.047113433 -0.107848346 0.052535787 0.09843245
-0.020113602 -0.012501329 -0.011954963 -0.11765845 -0.11639811 0.07117362 -0.11872573 -0.088590086
0.101108685 0.091656104 -0.11981727 -0.110989064 0.08152063 0.051833525 0.10202992 0.09721662
-0.03370592 -0.12100406 -0.036527455 -0.029273897 0.08842598 0.030458018 -0.03747742 0.008179545
-0.11652678 0.0046484917 0.0036268234 0.11477651 -0.02991563 -0.012006775 0.023776695 0.084337294
0.043974593 -0.10824758 -0.0031360835 -0.035391405 -0.07122956 0.07072057 0.03401351 -0.06845184
0.018688574 -0.07444748 0.047697797 0.018801078 0.06606406 -0.043474957 -0.10843487 -0.019624248
0.09165244 -0.012183249 -0.045964718 0.022326604 0.05750525 0.07130878 0.092237666 0.11134738
0.033452123 0.05092831 -0.06494351 -0.09705721 -0.07046047 0.04948616 0.06057486 0.0017971247
0.024129272 0.06535244 -0.10388398 -0.10579027 0.11383255 0.026541084 0.0929458 -0.064110115
00000000: 5800 f6bc f459 b9bd 2c85 673d e054 453c
00000010: 2a3e 8a3d c8e5 04bd 2ef9 8c3d 60a0 b2bb
00000020: b832 85bc 5c26 453d d217 d53d 4078 97bd
00000030: 2425 5e3d a68b a5bd a025 6ebc 64a8 563d
00000040: 9052 123c 22e8 ccbd 1266 963d 5c36 2c3d
00000050: 2a51 ca3d 66b0 d93d 1c09 e53d 3037 433c
00000060: 8a5c d5bd d6aa d0bd 248d 26bd 0884 bf3d
00000070: b84c e23d 4cd7 af3d 70ff 493d 72fd e5bd
00000080: 6c6d 193d a8be 17bd 32b9 f33d ea83 bdbd
00000090: dad7 d03d a44c 373d 7292 d63d 9ef6 a3bd
000000a0: da68 cfbd ca45 9e3d 9043 3dbc e879 e03d
000000b0: f0a4 b63d 4476 24bd 809d 08bc 72f7 cf3d
000000c0: 5043 d43d 1491 3bbd 4c30 aa3d fa87 873d
000000d0: 548b 38bd 1443 8e3d 3864 1cbd 3ec0 853d
000000e0: 227c db3d 0068 02bc 1028 293c 9057 13bc
000000f0: e055 2a3d 4208 e13d 1461 e83d 7e02 f8bd
00000100: a833 80bd 00a0 0fbc 2451 4bbd e8b1 4abd
00000110: 8040 fd3b f0c8 62bc 560a f8bd daaf bebd
00000120: 605a 81bd 086e 993d 5811 0a3d 00bc 9b3b
00000130: 8065 6f3b 00b7 943c 62e3 e2bd 303e 1a3c
00000140: 4c9c 443d 78b6 c3bd 8e6b cbbd 0e23 9abd
00000150: 403b 40bc 0421 393d 10ff 213c 68df a53c
00000160: fe35 c5bd 78f8 aebd 5097 b9bd 74d2 f73d
00000170: a434 65bd c8a1 543d 00eb 12bb e0dd 643c
00000180: 2cb6 6fbd 8040 353c 88a8 35bd 4ca7 113d
00000190: 2898 f13c 4a7a 92bd 9066 98bc d0d7 ba3c
000001a0: de05 a5bd c473 a6bd 2481 1e3d 805e 433d
000001b0: c689 c3bd 34c7 d03d 784f 983d 3c0d 0dbd
000001c0: b048 a7bd fa01 a63d 3266 d2bd 0aae a6bd
000001d0: 0ada f23d 6845 103d e079 24bd f08d e43d
000001e0: fa36 fabd 9ed7 c9bd 743b 803d 2057 853c
000001f0: 80e8 d93d 2c03 02bd 782f d13d b623 a7bd
00000200: dc0b 7d3d c893 9a3d 4015 b5bc 24b7 073d
00000210: 5e72 a93d fe40 8dbd b804 093d c4b1 e8bd
00000220: 4094 083b 6ca5 383d 8039 b03d 0c11 05bd
00000230: 1874 f23c 72f2 a83d 1ee1 e03d 9076 6f3c
00000240: d03f 3a3c 52cf f13d 6065 35bc 1845 63bd
00000250: 98a2 84bd dcc6 073d c0d3 6a3c cc35 21bd
00000260: 1c97 a83d cc99 2b3d c862 ebbc b2ce c63d
00000270: c091 45bd 284c 9d3c 62d3 80bd d022 7d3c
00000280: 4c74 2abd 58fb e0bc 664c d2bd 366d aebd
00000290: 9495 693d f467 e23d c856 19bd 0042 6bbd
000002a0: e4b1 4bbd 2e1d ca3d fa98 93bd ca8f f53d
000002b0: dcd7 203d 6021 133d 9c5a 4abd 8472 783d
000002c0: 9090 bcbd 6473 e1bd ee98 86bd d02c b9bc
000002d0: 04fa 403d 98df dcbd c42f 573d f496 c93d
000002e0: 48c5 a4bc 60d2 4cbc c0de 43bc eaf6 f0bd
000002f0: 2262 eebd 7ac3 913d 7a26 f3bd b86e b5bd
00000300: 1212 cf3d 32b6 bb3d c262 f5bd 3c4e e3bd
00000310: 4af4 a63d 644f 543d 10f5 d03d 8219 c73d
00000320: 380f 0abd fad0 f7bd d09d 15bd d0cf efbc
00000330: ae18 b53d 1883 f93c ec81 19bd 8003 063c
00000340: 98a5 eebd 6052 983b 00b0 6d3b f20f eb3d
00000350: a011 f5bc 10b8 44bc 58c7 c23c 08b9 ac3d
00000360: b41e 343d e8b0 ddbd c086 4dbb 94f6 10bd
00000370: cee0 91bd f2d5 903d c051 0b3d 7a30 8cbd
00000380: c818 993c ec77 98bd c45e 433d b804 9a3c
00000390: 984c 873d cc12 32bd 1a13 debd 08c3 a0bc
000003a0: 46b4 bb3d 409c 47bc 8045 3cbd 48e6 b63c
000003b0: a08a 6b3d 560a 923d 1ae7 bc3d 180a e43d
000003c0: 1805 093d 349a 503d 1a01 85bd eec5 c6bd
000003d0: 944d 90bd 00b2 4a3d 581d 783d 808d eb3a
000003e0: c0aa c53c 80d7 853d 20c1 d4bd 92a8 d8bd
000003f0: 0a21 e93d b06c d93c 5e5a be3d 2a4c 83bd

conv2.bias f4 [128]
-0.0035336912 0.004503742 -0.041297644 -0.009153724 0.06640288 -0.103451684 -0.08252947 0.02379942
0.044741154 -0.0010603219 -0.10112359 0.06308274 -0.040495485 0.064478934 0.0664753 0.11275223
0.016788244 -0.07549493 0.0972307 -0.072763056 -0.0045384467 -0.00442259 0.025654286 0.008269936
-0.04875295 0.061350256 -0.015551865 -0.12336239 0.06813787 -0.061010316 0.061637655 0.014556453
-0.0657413 0.058025554 -0.004087344 0.017646655 0.111684635 -0.03136663 -0.08455448 0.044190302
0.05079487 0.08331595 -0.046169996 -0.052415237 0.11719608 -0.074413925 0.02227144 -0.058882773
-0.09101282 0.076239094 -0.006666586 -0.07566355 0.07099889 -0.034004092 -0.092030704 -0.12357515
-0.10120255 0.016186088 -0.11049569 -0.053396508 0.0782696 0.07921462 -0.007690519 0.0341264
0.035886377 0.07885584 0.060649455 -0.019273356 -0.08125645 -0.028336793 -0.12096165 -0.030435383
-0.09013896 0.10775466 -0.07047129 0.11885436 0.11999242 0.078650355 0.057539597 0.101806074
-0.11538853 0.025050953 -0.013651788 0.0048723817 0.07920183 -0.062482342 -0.06823178 0.09771374
-0.0010128468 0.00856483 0.05341506 -0.096254826 -0.01679866 -0.091614336 0.0046967417 -0.043745786
0.030792028 -0.100579366 -0.09351231 -0.06699251 0.10034059 0.0074145794 0.0708095 -0.086891055
-0.04682122 -0.04106109 -0.0035486966 -0.11517465 0.0811079 0.032708883 -0.08296557 -0.04609014
0.058508992 0.019249618 -0.11614466 0.09716651 0.117044315 -0.06587073 0.09186646 0.0027790815
-0.040159762 0.11802429 -0.059308216 -0.02299364 0.04828824 0.0068995655 -0.038225904 0.009193525
00000000: 8095 67bb 2094 933b b827 29bd 80f9 15bc
00000010: 3cfe 873d 7ade d3bd 3605 a9bd 00f7 c23c
00000020: 8042 373d 80fa 8aba e219 cfbd 8631 813d
00000030: 98de 25bd 880d 843d 3424 883d a4ea e63d
00000040: 8087 893c 169d 9abd e420 c73d cc04 95bd
00000050: 40b7 94bb 60eb 90bb f028 d23c a07e 073c
00000060: 2cb1 47bd 684a 7b3d 40cd 7ebc 6ca5 fcbd
00000070: de8b 8b3d f4e5 79bd c477 7c3d 307e 6e3c
00000080: 60a3 86bd 34ac 6d3d 20ef 85bb b88f 903c
00000090: eaba e43d 4c7a 00bd e62a adbd e400 353d
000000a0: 480e 503d 8ea1 aa3d c01c 3dbd 5cb1 56bd
000000b0: 8004 f03d 5466 98bd 9872 b63c 102f 71bd
000000c0: ee64 babd 3e23 9c3d 6073 dabb 7ef5 9abd
000000d0: de67 913d e047 0bbd 987a bcbd f814 fdbd
000000e0: 4843 cfbd b098 843c 904b e2bd 4cb6 5abd
000000f0: d04b a03d 463b a23d c000 fcbb 20c8 0b3d
00000100: 98fd 123d 2c7f a13d 906b 783d 28e3 9dbc
00000110: c869 a6bd 9022 e8bc beba f7bd a053 f9bc
00000120: c69a b8bd 7aae dc3d 4053 90bd ea69 f33d
00000130: 96be f53d 7013 a13d a4ae 6b3d b47f d03d
00000140: d250 ecbd a837 cd3c c0ab 5fbc 80a8 9f3b
00000150: 9234 a23d 7ced 7fbd 1abd 8bbd 241e c83d
00000160: 80c1 84ba 8053 0c3c c0c9 5a3d 4021 c5bd
00000170: 589d 89bc 4ca0 bbbd 20e7 993b c82e 33bd
00000180: 903f fc3c 8efc cdbd 6283 bfbd 5e33 89bd
00000190: 5e7f cd3d 00f6 f23b 9204 913d f0f3 b1bd
000001a0: 9cc7 3fbd ac2f 28bd 4091 68bb b0e0 ebbd
000001b0: e61b a63d c0f9 053d dae9 a9bd 04c9 3cbd
000001c0: 20a7 6f3d 60b1 9d3c 40dd edbd 3cff c63d
000001d0: eeb4 ef3d 3ce7 86bd 7c24 bc3d 4021 363b
000001e0: 907e 24bd b8b6 f13d 2ced 72bd 285d bcbc
000001f0: e4c9 453d c015 e23b c492 1cbd 70a0 163c

conv3.weight f4 [256, 128, 1]
0.02495714 0.055704802 0.06409358 -0.06786319 -0.035586573 -0.065040365 -0.059634764 -0.08398182
0.07158785 0.007232315 0.024933033 0.009505041 0.08177995 -0.046376083 0.002205513 0.026288295
0.013192184 -0.0037543043 0.07321192 -0.02059984 -0.08050637 0.04815269 -0.060419645 0.008373578
-0.069672935 0.00298033 0.07175405 0.044046428 -0.08213879 -0.0041792286 -0.06353717 0.08311907
-0.010997114 0.04432467 -0.05776378 0.023499576 -0.00764901 0.07855683 -0.08566443 0.018796619
-0.07041845 0.072740816 -0.025567405 0.011728024 0.007318505 -0.05456845 -0.070296094 0.013090979
-0.07651695 0.08118279 -0.07360248 0.058274467 0.023973359 -0.08353973 -0.05520119 0.07579706
-0.05668183 0.079966724 0.03648697 -0.010783102 0.07700141 0.029593788 0.03484204 0.0013026115
0.0005723647 0.079798564 0.006586288 -0.073524795 0.0038669733 0.035478637 -0.086514406 -0.08330085
0.025627118 -0.03278044 0.008110634 0.006722591 0.06793451 -0.012443446 -0.03828921 -0.036663596
0.032033764 0.06609399 -0.008519964 0.08267106 -0.07444622 -0.0523573 0.027842639 -0.053360563
0.0018792647 0.012212576 -0.054313514 -0.04367779 -0.014200453 -0.06455827 -0.05898674 0.0266785
-0.0075193876 -0.06866997 0.032130405 -0.042004075 0.033546206 -0.00019164172 -0.041809388 0.066394426
-0.048811276 -0.058796845 0.06994446 -0.021936085 0.03483966 0.05070805 0.025360897 -0.08073786
-0.043907154 -0.08604934 -0.041981917 0.06800498 -0.044224266 -0.023312055 -0.034353927 -0.068361014
-0.0372681 0.05840154 0.020647371 -0.07952299 0.04408264 -0.019217266 0.052970316 -0.06833493
0.036251273 -0.08809223 -0.020393606 0.049051017 -0.05974516 0.05484542 -0.08425314 -0.088216774
0.07513555 -0.064310744 0.06375578 0.056423366 -0.023396105 -0.07469965 0.065070435 0.010207271
-0.06840899 0.004789136 0.061146848 -0.07867964 0.0720136 -0.022926293 0.08479282 0.04264987
-0.011489315 -0.08743157 -0.02725801 -0.019540047 0.010731905 -0.07231673 0.07977575 -0.084018305
-0.0575804 -0.03394938 -0.0071600857 0.08178988 -0.03519521 0.06923431 -0.0529539 0.07849093
-0.08443434 0.030762943 -0.04243292 -0.032385513 0.05929361 0.08224681 -0.047599237 0.016311495
-0.06973577 0.08483084 -0.026524013 0.025717111 -0.045219943 -0.05039898 0.03819812 0.01762578
-0.046471 -0.00695305 0.03031845 -0.07499716 0.087268315 0.03968991 0.08449852 0.065399535
0.045287736 -0.08833969 0.05065477 -0.004284174 0.044405878 -0.05264904 -0.0064264145 0.08581838
0.04237973 0.0864029 0.0799078 0.07914913 -0.06670975 -0.07449197 -0.053090647 0.0074115125
-0.032039043 -0.0063709915 -0.038040638 0.06865634 0.06524413 0.028176432 0.0030357426 0.058336012
0.087384485 0.075165 -0.06658769 0.06305749 -0.08284556 0.033332456 -0.048240744 0.013224985
0.0533607 0.07410992 0.07064169 0.06380427 -0.021360444 -0.05238967 0.02728551 0.0640613
-0.06710982 -0.049313203 0.0655072 0.071585536 -0.00080023165 0.04918379 -0.053653907 -0.003508525
0.07823907 0.041599624 -0.058671817 0.044497315 0.0215775 -0.06674358 0.042232763 -0.08836324
0.073461734 -0.047112685 -0.065424934 -0.014137918 -0.015555559 0.016847443 0.000533558 0.036868945
00000000: eb72 cc3c b82a 643d 7f43 833d dbfb 8abd
00000010: 3ac3 11bd e233 85bd 9543 74bd a9fe abbd
00000020: a79c 923d 0efd ec3b 5c40 cc3c 08bb 1b3c
00000030: 3f7c a73d d9f4 3dbd 5e8a 103b 8d5a d73c
00000040: 0824 583c c60a 76bb 22f0 953d ffc0 a8bc
00000050: 86e0 a4bd c13b 453d 977a 77bd 5531 093c
00000060: afb0 8ebd a451 433b caf3 923d 076a 343d
00000070: 6238 a8bd e9f1 88bb c71f 82bd 553a aa3d
00000080: 3d2d 34bc c98d 353d b799 6cbd 2f82 c03c
00000090: 8ca4 fabb 67e2 a03d d570 afbd 5efb 993c
000000a0: 8c37 90bd 23f9 943d bc72 d1bc e626 403c
000000b0: 12d0 ef3b 2b83 5fbd 66f7 8fbd 8c7b 563c
000000c0: ebb4 9cbd 2a43 a63d e6bc 96bd 35b1 6e3d
000000d0: c763 c43c e116 abbd a51a 62bd 7d3b 9b3d
000000e0: 352b 68bd 98c5 a33d 5c73 153d 9cab 30bc
000000f0: eab2 9d3d ac6e f23c 87b6 0e3d 64bc aa3a
00000100: bf0a 163a 6e6d a33d cad1 d73b 2b94 96bd
00000110: 0c6d 7d3b 0c52 113d 772e b1bd a399 aabd
00000120: f6ef d13c c844 06bd 77e2 043c 2e49 dc3b
00000130: 4021 8b3d 98df 4bbc 26d5 1cbd 912c 16bd
00000140: d635 033d 495c 873d 5297 0bbc 724f a93d
00000150: 4377 98bd 9c74 56bd 3f16 e43c 9b90 5abd
00000160: a951 f63a 4217 483c d977 5ebd 7be7 32bd
00000170: 04a9 68bc 2037 84bd 149c 71bd df8c da3c
00000180: 3265 f6bb d7a2 8cbd 2c9b 033d 770c 2cbd
00000190: bf67 093d 6ff3 48b9 5240 2bbd cdf9 873d
000001a0: 55ee 47bd f6d4 70bd 0b3f 8f3d 4eb3 b3bc
000001b0: 08b4 0e3d 3fb3 4f3d a8c1 cf3c e459 a5bd
000001c0: fdd7 33bd a33a b0bd 3bf5 2bbd 3246 8b3d
000001d0: 8124 35bd ecf8 bebc b4b6 0cbd dc00 8cbd
000001e0: 6fa6 18bd 7436 6f3d ad24 a93c f3dc a2bd
000001f0: 0090 343d 876d 9dbc 67f7 583d 2ff3 8bbd
00000200: 377c 143d b369 b4bd 7e10 a7bc b8e9 483d
00000210: 57b7 74bd 97a5 603d e98c acbd ffaa b4bd
00000220: abe0 993d 5ab5 83bd 6492 823d 301c 673d
00000230: 30a9 bfbc 21fc 98bd a643 853d 663c 273c
00000240: 031a 8cbd 2fee 9c3b 1e75 7a3d cb22 a1bd
00000250: de7b 933d eccf bbbc dca7 ad3d a1b1 2e3d
00000260: ae3d 3cbc 530f b3bd 314c dfbc 7312 a0bc
00000270: dfd4 2f3c cb1a 94bd 7861 a33d ca11 acbd
00000280: 6dd9 6bbd 810e 0bbd 279f eabb 7481 a73d
00000290: da28 10bd b8ca 8d3d 30e6 58bd dabf a03d
000002a0: e9eb acbd 9102 fc3c 24ce 2dbd aca6 04bd
000002b0: dbdd 723d 0471 a83d 6bf7 42bd af9f 853c
000002c0: a1d1 8ebd cbbb ad3d e348 d9bc b1ac d23c
000002d0: 8c38 39bd 296f 4ebd a275 1c3d f163 903c
000002e0: 6058 3ebd 69d6 e3bb 665e f83c 1c98 99bd
000002f0: bbb9 b23d e391 223d 8f0d ad3d 31f0 853d
00000300: a27f 393d 70eb b4bd 607b 4f3d 4262 8cbb
00000310: f0e2 353d 85a6 57bd ac94 d2bb 8cc1 af3d
00000320: 5e96 2d3d 01f4 b03d b3a6 a33d f018 a23d
00000330: 1f9f 88bd 3f8f 98bd 9475 59bd 46dc f23b
00000340: 5f3b 03bd c0c3 d0bb 80d0 1bbd b29b 8c3d
00000350: b79e 853d 43d2 e63c 4ff3 463b bef1 6e3d
00000360: a3f6 b23d 1cf0 993d 205f 88bd 4924 813d
00000370: efaa a9bd 9d87 083d 1698 45bd 9cad 583c
00000380: c090 5a3d f1c6 973d 97ac 903d d0ab 823d
00000390: 19fc aebc 8d96 56bd dd85 df3c 9232 833d
000003a0: e070 89bd a4fc 49bd a428 863d 709b 923d
000003b0: a3c6 51ba f174 493d 33c4 5bbd 48ef 65bb
000003c0: ce3b a03d 5e64 2a3d dc51 70bd d142 363d
000003d0: 4cc3 b03c dcb0 88bd 43fc 2c3d c9f7 b4bd
000003e0: 1b73 963d 3bf9 40bd 82fd 85bd baa2 67bc
000003f0: bedc 7ebc a603 8a3c 79de 0b3a e403 173d

conv3.bias f4 [256]
0.014280711 0.020382585 0.016524388 0.077523634 -0.0010992319 -0.054218084 0.06752281 -0.031017793
-0.033939224 -0.07918315 0.06628244 0.087522954 -0.07880032 0.025391305 0.08530072 0.012054904
-0.084968664 -0.07380456 -0.074388355 0.053569034 0.012262088 0.06579056 0.081089914 -0.055348672
0.07658593 -0.08161085 0.0062478906 -0.052226804 -0.060028765 -0.051870443 0.00041281784 -0.0053786016
-0.016681196 0.064595036 -0.0339317 -0.08445616 0.04172104 0.0077125467 -0.05489959 -0.05508533
0.07793061 0.06666135 -0.04712616 -0.06657705 0.014013805 -0.019014772 -0.01661024 -0.06585034
0.027087927 0.038226876 -0.013232077 -0.08143678 0.03913103 -0.001629218 -0.075190574 0.026260626
0.070421085 -0.08720994 0.017406574 -0.01325865 0.015292341 -0.057547644 -0.08697767 0.021557575
0.07799296 0.02191908 0.041624207 -0.06690894 0.085137516 -0.028854385 -0.040330626 -0.052661106
0.012442761 0.073967785 0.021043848 -0.056272436 0.018893357 -0.03357361 -0.053720508 0.07846707
0.049433995 0.0020658488 -0.065180376 0.04353962 -0.05533839 -0.08640763 -0.03606041 0.08314108
-0.00025860252 0.0076351226 -0.06550151 0.021504143 0.067107104 0.02446242 -0.04184748 0.056092776
0.04918531 0.08744447 -0.009606963 -0.07640322 0.074287504 0.054689676 -0.038480125 -0.029038345
0.035149872 -0.041127082 -0.06630438 0.028750218 -0.05576973 -0.004712913 0.035105288 -0.022148537
-0.03155798 -0.031524852 0.0300096 0.011032295 0.07859047 -0.07569064 0.03099573 -0.023946375
0.034334276 -0.04599458 0.076729126 -0.06493529 0.037790064 -0.069004245 0.065392464 0.065634884
0.055005208 -0.068335876 -0.053299356 0.08612597 -0.020523755 0.04351605 0.022803089 0.042159893
0.06340985 -0.05001025 0.042392608 -0.06307506 0.04982376 -0.07769666 0.047017433 -0.01706451
0.039114002 0.055809096 0.023276787 0.06961959 0.007625861 0.07969164 0.044357188 0.08778229
-0.031869803 -0.031846285 0.0771009 0.0313876 -0.035646148 0.08444662 -0.034071438 0.075069785
-0.008239424 0.012798765 0.071628645 0.03162845 -0.072683744 -0.039349098 -0.0650731 0.04412501
-0.048920806 0.012868023 0.04493992 0.06802896 0.059530273 0.040437352 0.06297503 -0.051552538
0.05078454 -0.08295837 0.069870286 0.045592554 -0.038618576 0.076873034 0.02814791 0.06527005
-0.046353262 0.07333465 -0.036000762 0.03424323 -0.052294154 0.029625978 -0.00038683432 0.029231146
-0.07308416 0.026381988 0.010394382 -0.034523316 -0.088278145 0.051624 -0.030490188 -0.036281787
0.022157157 0.0296547 0.06819045 -0.084035136 0.025344817 0.027596092 0.045672864 -0.04590697
0.013564752 0.0050678737 0.04647043 -0.012705799 -0.06874354 0.0652306 0.0077289417 0.07557804
0.012863102 -0.008612097 -0.001448661 -0.031930357 0.032482397 -0.08477861 0.03993162 0.06104211
0.02823058 0.0051047523 0.061237432 0.06245439 0.0709615 0.00016217053 0.030549036 -0.022918614
0.05519983 -0.04527601 -0.04598668 -0.061864544 -0.008292635 0.0630801 0.045988828 0.069661215
-0.051299192 0.00564949 0.035082657 -0.05855783 0.08089557 -0.057412554 0.022266421 -0.0511823
-0.065118015 -0.01823909 0.02096441 0.006418965 0.040996343 0.052535813 -0.052852936 -0.027750412
00000000: a5f9 693c 61f9 a63c 275e 873c b6c4 9e3d
00000010: 1a14 90ba c813 5ebd 6649 8a3d 0719 febc
00000020: db03 0bbd c62a a2bd 17bf 873d 3c3f b33d
00000030: 1062 a1bd 6d01 d03c 25b2 ae3d ef81 453c
00000040: 0d04 aebd d826 97bd ec58 98bd 346b 5b3d
00000050: ede6 483c 33bd 863d 7812 a63d 4ab5 62bd
00000060: 16d9 9c3d 9723 a7bd 1bbb cc3b c6eb 55bd
00000070: b9e0 75bd 1a76 54bd 796f d839 fb3e b0bb
00000080: 01a7 88bc 674a 843d f7fb 0abd 5af7 acbd
00000090: aee3 2a3d 88b9 fc3b 64de 60bd 28a1 61bd
000000a0: 159a 9f3d bf85 883d 5c07 41bd 8c59 88bd
000000b0: 299a 653c dec4 9bbc 3312 88bc 8bdc 86bd
000000c0: 80e7 dd3c c993 1c3d 5acb 58bc 54c8 a6bd
000000d0: dc47 203d 7c8b d5ba 84fd 99bd 8620 d73c
000000e0: ee38 903d 209b b2bd 3b98 8e3c cf3a 59bc
000000f0: ba8c 7a3c 14b7 6bbd 5921 b2bd 8399 b03c
00000100: c6ba 9f3d a48f b33c 257e 2a3d 8e07 89bd
00000110: 945c ae3d 0860 ecbc ba31 25bd 2cb3 57bd
00000120: b9dc 4b3c 6c7c 973d 2664 ac3c ed7d 66bd
00000130: 3ec6 9a3c 7b84 09bd 090a 5cbd 58b3 a03d
00000140: 4d7b 4a3d 3163 073b 4a7d 85bd 9a56 323d
00000150: 82aa 62bd 7cf6 b0bd 15b4 13bd df45 aa3d
00000160: 0b95 87b9 0d30 fa3b a825 86bd 7529 b03c
00000170: 736f 893d 6a65 c83c 4368 2bbd 8ac1 653d
00000180: 8976 493d 1616 b33d 8666 1dbc 4b79 9cbd
00000190: 0c24 983d 4802 603d 569d 1dbd d3e1 edbc
000001a0: 50f9 0f3d df74 28bd 97ca 87bd 9485 eb3c
000001b0: cd6e 64bd c86e 9abb 90ca 0f3d d970 b5bc
000001c0: f142 01bd 3420 01bd b1d6 f53c cdc0 343c
000001d0: 0af4 a03d b203 9bbd c2ea fd3c 302b c4bc
000001e0: 19a2 0c3d d064 3cbd 2924 9d3d cbfc 84bd
000001f0: c1c9 1a3d 1952 8dbd 7cec 853d 956b 863d
00000200: 244d 613d aef3 8bbd 6d50 5abd d062 b03d
00000210: 6f21 a8bc e33d 323d 8bcd ba3c daaf 2c3d
00000220: 06dd 813d 8cd7 4cbd dfa3 2d3d 7f2d 81bd
00000230: 0014 4c3d 6d1f 9fbd 5a95 403d dfca 8bbc
00000240: 0136 203d 1498 643d f6ae be3c b794 8e3d
00000250: 5ce2 f93b 5f35 a33d e2af 353d 34c7 b33d
00000260: e989 02bd 4071 02bd 14e7 9d3d 4990 003d
00000270: b201 12bd 59f2 ac3d 7e8e 0bbd 30be 993d
00000280: a6fe 06bc e9b1 513c 0ab2 923d d58c 013d
00000290: 37db 94bd 852c 21bd 0c45 85bd 6dbc 343d
000002a0: 2f61 48bd 66d4 523c ec12 383d c452 8b3d
000002b0: 04d6 733d a3a1 253d 0df9 803d c128 53bd
000002c0: 7303 503d 14e6 a9bd 2718 8f3d 42bf 3a3d
000002d0: 832e 1ebd 9c6f 9d3d 7296 e63c 4eac 853d
000002e0: ebdc 3dbd 7a30 963d 8975 13bd a142 0c3d
000002f0: 6532 56bd 2eb2 f23c 06d0 cab9 2876 ef3c
00000300: 26ad 95bd 0a1f d83c 334d 2a3c 5268 0dbd
00000310: 2ccb b4bd b073 533d 8fc6 f9bc 369c 14bd
00000320: ed82 b53c 6aee f23c 6fa7 8b3d 9d1a acbd
00000330: ef9f cf3c 3311 e23c 7813 3b3d f208 3cbd
00000340: b23e 5e3c 6810 a63b c757 3e3d fc2b 50bc
00000350: 6ac9 8cbd 9f97 853d 1043 fd3b a9c8 9a3d
00000360: c3bf 523c c119 0dbc ffe0 bdba 68c9 02bd
00000370: 430c 053d 68a0 adbd 578f 233d 4b07 7a3d
00000380: d143 e73c c445 a73b 1ad4 7a3d 2dd0 7f3d
00000390: 4354 913d 520c 2a39 f941 fa3c d1bf bbbc
000003a0: 3819 623d 5673 39bd 875c 3cbd ad65 7dbd
000003b0: d5dd 07bc 2430 813d c85e 3c3d 8aaa 8e3d
000003c0: 1a1f 52bd 5b1f b93b d5b2 0f3d 56da 6fbd
000003d0: 94ac a53d 6d29 6bbd 1268 b63c 88a4 51bd
000003e0: 985c 85bd 256a 95bc 8ebd ab3c 2e56 d23b
000003f0: c8eb 273d cb2f 573d 527c 58bd d554 e3bc

fc.weight f4 [5, 256]
0.04297348 0.042291522 -0.040395692 0.057253562 -0.018848412 -0.00868658 -0.026469983 -0.021353148
-0.038061827 -0.023975864 0.058882184 -0.024164476 -0.040693082 0.044068746 -0.046222337 -0.039554834
0.0012207851 0.04446792 0.048408754 0.025131956 -0.047606558 -0.027486295 0.050298788 0.06147068
-0.018614866 -0.020610228 -0.061020687 0.04880903 -0.015985534 0.039044447 -0.01424858 -0.059496865
-0.02642227 -0.05368504 0.012427047 0.0020115077 0.029672623 -0.047958665 0.005705446 0.027698532
-0.023664854 -0.0126957 -0.016000628 0.056586243 -0.050203383 -0.01758296 -0.052655727 -0.016818978
-0.027365543 -0.023598231 -0.04665371 -0.0015796944 -0.04561446 0.010130927 0.016667016 -0.035225227
-0.036650844 0.023237772 -0.05985363 -0.018911235 -0.043049864 -0.03048671 -0.01947169 -0.026474476
0.00061680377 -0.035623327 0.040500745 0.008067854 0.05914437 0.0060537905 -0.057477444 0.0011467189
0.0036754906 -0.009990007 -0.046200596 0.026367836 -0.013074048 -0.028167665 -0.030558392 -0.054413177
0.04386896 0.046430953 0.05748886 -0.04863543 0.0018583313 -0.04340884 -0.025927313 0.005076356
0.006115377 0.040769726 0.050027438 -0.05202286 0.05844304 0.006607808 -0.053227045 -8.200109e-05
-0.05526367 -0.05094421 -0.023641951 0.001233153 0.03080979 -0.004108414 -0.047826715 -0.061344646
-0.025226474 -0.015543655 -0.036457516 -0.035348997 -0.051161446 -0.04635808 -0.008042358 0.029188074
-0.016900808 -0.049436137 0.01426395 0.02960451 -0.045631193 -0.018068299 0.03250239 0.007905394
0.014289878 -0.059088327 0.0027047545 0.032357194 -0.0014883503 -0.013057798 -0.020475179 0.0465051
-0.010217249 -0.006766118 0.007237926 -0.006295584 -0.02348885 0.054385893 -0.020176336 0.020193614
-0.012324214 0.024513468 0.046211123 -0.017477408 -0.018817075 -0.056543976 0.0043300167 0.0094989985
-0.060029797 -0.031484455 0.016835108 0.05569888 0.050431028 0.047530383 0.02061297 -0.037795566
0.044804096 -0.05582524 0.042078473 0.028704472 -0.045575157 -0.036518194 -0.005506687 -0.04927607
-0.033444777 0.05473134 -0.004188098 0.020675384 0.028587408 -0.041715153 -0.044834152 0.062361665
-0.05964458 -0.042375922 0.041113608 0.022632383 0.043161884 0.03154488 -0.0100476965 0.03775029
0.04927615 -0.01777421 0.035903938 0.025044844 0.056319617 -0.060534574 -0.027874343 -0.051729277
-0.0010203943 0.056269243 -0.010274373 0.0427975 0.054405943 -0.05365341 -0.0033656508 -0.022584826
0.03329146 -0.02781032 0.006188303 0.049068436 0.002647087 0.042508982 -0.025025792 0.01758936
-0.060544446 -0.016647078 0.010814041 0.022009663 -0.06182825 -0.026541568 0.0033592656 -0.034538873
0.020714164 -0.025206313 0.018479109 -0.05156696 -0.04468871 0.034854487 -0.0006375462 0.037391312
0.014897399 -0.013487473 0.033937693 0.029649049 -0.036690146 -0.024921618 0.033726282 0.006223552
-0.04744944 0.05158779 0.027050734 -0.013008229 0.06157182 -0.025160983 0.011072412 0.043738894
-0.0018885583 -0.037363857 -0.062304974 0.059716865 0.04059095 -0.03439291 0.040970758 0.04296705
-0.0029875264 0.04871238 -0.021785185 -0.052380495 -0.025698043 -0.025931343 0.037654325 0.047716133
-0.017629877 -0.04529026 -0.029519007 -0.019586556 -0.03825879 0.062091373 0.042330712 0.061577365
00000000: f604 303d e039 2d3d f475 25bd b682 6a3d
00000010: fc67 9abc 2852 0ebc 94d7 d8bc ccec aebc
00000020: b8e6 1bbd 0869 c4bc 722e 713d 94f4 c5bc
00000030: caad 26bd 6e81 343d a253 3dbd 4004 22bd
00000040: c002 a03a fe23 363d 4248 463d 88e1 cd3c
00000050: 18ff 42bd f02a e1bc 1a06 4e3d aec8 7b3d
00000060: 347e 98bc c8d6 a8bc d4f0 79bd faeb 473d
00000070: 18f4 82bc 12ed 1f3d e072 69bc fcb2 73bd
00000080: 8473 d8bc d8e4 5bbd d09a 4b3c 80d3 033b
00000090: 0014 f33c 4e70 44bd c0f4 ba3b 08e8 e23c
000000a0: ccdc c1bc a001 50bc c013 83bc fac6 673d
000000b0: 10a2 4dbd 240a 90bc 88ad 57bd f4c7 89bc
000000c0: b42d e0bc 1451 c1bc f617 3fbd c00d cfba
000000d0: 3ad6 3abd 30fc 253c 4489 883c 5448 10bd
000000e0: 321f 16bd 245d be3c 1429 75bd bceb 9abc
000000f0: 0e55 30bd 44bf f9bc 1883 9fbc 00e1 d8bc
00000100: 00b1 213a c4e9 11bd 1ce4 253d 082f 043c
00000110: 5e41 723d e05e c63b 786d 6bbd 804d 963a
00000120: 80e0 703b 20ad 23bc d63c 3dbd 5c01 d83c
00000130: 8834 56bc e0bf e6bc 9855 fabc 5ae0 5ebd
00000140: f0af 333d 622e 3e3d 7079 6b3d f235 47bd
00000150: 4093 f33a 78cd 31bd 8465 d4bc 9057 a63b
00000160: 8063 c83b 28fe 263d 92e9 4c3d ec15 55bd
00000170: f861 6f3d 5086 d83b 9a04 5abd 00f8 abb8
00000180: 285c 62bd e0aa 50bd c4ac c1bc c0a1 a13a
00000190: d064 fc3c e09f 86bb f2e5 43bd 8644 7bbd
000001a0: c0a7 cebc d0aa 7ebc 7a54 15bd 1cca 10bd
000001b0: aa8e 51bd f8e1 3dbd 18c4 03bc d41b ef3c
000001c0: 9073 8abc 8c7d 4abd 58b3 693c 2885 f23c
000001d0: c6e7 3abd f803 94bc 3a21 053d a085 013c
000001e0: 1820 6a3c 9a06 72bd 4042 313b fa88 043d
000001f0: c014 c3ba 60f0 55bc 90bb a7bc 227c 3e3d
00000200: 4066 27bc 50b6 ddbb 202c ed3b 304b cebb
00000210: b06b c0bc bec3 5e3d d848 a5bc 146d a53c
00000220: 80eb 49bc 78d0 c83c e047 3d3d c82c 8fbc
00000230: 4426 9abc a89a 67bd d0e2 8d3b b0a1 1b3c
00000240: cee1 75bd d8f5 00bd c8e9 893c 8224 643d
00000250: c490 4e3d 38af 423d 88dc a83c 86cf 1abd
00000260: 8084 373d 02a9 64bd 7a5a 2c3d a425 eb3c
00000270: 04ad 3abd 1a94 15bd 7071 b4bb b4d5 49bd
00000280: 64fd 08bd f82d 603d 503c 89bb 6c5f a93c
00000290: 2430 ea3c 82dd 2abd 04a4 37bd f26e 7f3d
000002a0: e04d 74bd 6092 2dbd be66 283d 8c67 b93c
000002b0: 84ca 303d 3435 013d 189f 24bc 0ca0 1a3d
000002c0: cad5 493d 389b 91bc 0210 133d d82a cd3c
000002d0: 66af 663d 1af3 77bd bc58 e4bc 14e2 53bd
000002e0: c0be 85ba 947a 663d d855 28bc 6e4c 2f3d
000002f0: c4d8 5e3d aec3 5bbd 4092 5cbb d003 b9bc
00000300: a05c 083d 78d2 e3bc 40c7 ca3b fcfb 483d
00000310: c07a 2d3b e61d 2e3d e402 cdbc 9017 903c
00000320: 74fd 77bd 745f 88bc 602d 313c 9c4d b43c
00000330: 9e3f 7dbd b46d d9bc 2027 5c3b a278 0dbd
00000340: c0b0 a93c 787d cebc 8061 973c e037 53bd
00000350: 820b 37bd 94c3 0e3d 0021 27ba a227 193d
00000360: 3814 743c 90fa 5cbc 4002 0b3d 90e2 f23c
00000370: 6848 16bd 6c28 ccbc 9224 0a3d f0ee cb3b
00000380: 585a 42bd b84d 533d 8099 dd3c 7820 55bc
00000390: bc32 7c3d 681e cebc 1069 353c 8e27 333d
000003a0: 8089 f7ba d80a 19bd 8033 7fbd ac99 743d
000003b0: b242 263d 94df 0cbd f4d0 273d 38fe 2f3d
000003c0: 60ca 43bb a286 473d d876 b2bc ee8c 56bd
000003d0: b484 d2bc f86d d4bc 6c3b 1a3d fe71 433d
000003e0: 886c 90bc 4882 39bd d8d1 f1bc fc73 a0bc
000003f0: 40b5 1cbd 8653 7e3d f862 2d3d 8c38 7c3d

fc.bias f4 [5]
-0.0385677 0.005131535 -0.024929196 0.053060398 -0.05468671
00000000: 2af9 1dbd 7026 a83b 5038 ccbc dc55 593d
00000010: 2cff 5fbd
